…
2021-05-22 17:19:07 [05/22 17:19:06][INFO] resnet_3D.py: 1214: Imagenet feature extractor: OFF
2021-05-22 17:19:07 torch.Size([1, 8, 8])
2021-05-22 17:19:07 torch.Size([1, 8, 8])
2021-05-22 17:19:07 torch.Size([1, 16, 16])
2021-05-22 17:19:07 torch.Size([1, 16, 16])
2021-05-22 17:19:07 torch.Size([1, 16, 16])
2021-05-22 17:19:07 torch.Size([1, 16, 16])
2021-05-22 17:19:07 torch.Size([1, 32, 32])
2021-05-22 17:19:07 torch.Size([1,2021-05-22 17:19:13 [05/22 17:19:10][INFO] main.py: 144: Model:
2021-05-22 17:19:13 DataParallel(
2021-05-22 17:19:13   (module): TSN(
2021-05-22 17:19:13     (base_model): ResNet(
2021-05-22 17:19:13       (conv1): Conv3d(3, 64, kernel_size=(1, 7, 7), stride=(1, 2, 2), padding=(0, 3, 3), bias=False)
2021-05-22 17:19:13       (bn1): BatchNorm3d(64, eps=1e-05, momentum=0.1, affine=True, track_running_stats=True)
2021-05-22 17:19:13       (relu): ReLU(inplace=True)
2021-05-22 17:19:13       (maxpool): MaxPool3d(kernel_size=(1, 3, 3), stride=(1, 2, 2), padding=(0, 1, 1), dilation=1, ceil_mode=False)
2021-05-22 17:19:13       (layer1): Sequential(
2021-05-22 17:19:13         (0): Bottleneck(
2021-05-22 17:19:13           (conv1): Conv3d(64, 64, kernel_size=(1, 1, 1), stride=(1, 1, 1), bias=False)
2021-05-22 17:19:13           (bn1): BatchNorm3d(64, eps=1e-05, momentum=0.1, affine=True, track_running_stats=True)
2021-05-22 17:19:13           (conv2): Conv3d(64, 64, kernel_size=(1, 3, 3), stride=(1, 1, 1), padding=(0, 1, 1), bias=False)
2021-05-22 17:19:13           (bn2): BatchNorm3d(64, eps=1e-05, momentum=0.1, affine=True, track_running_stats=True)
2021-05-22 17:19:13           (conv3): Conv3d(64, 256, kernel_size=(1, 1, 1), stride=(1, 1, 1), bias=False)
2021-05-22 17:19:13           (bn3): BatchNorm3d(256, eps=1e-05, momentum=0.1, affine=True, track_running_stats=True)
2021-05-22 17:19:13           (relu): ReLU(inplace=True)
2021-05-22 17:19:13           (downsample): Sequential(
2021-05-22 17:19:13             (0): Conv3d(64, 256, kernel_size=(1, 1, 1), stride=(1, 1, 1), bias=False)
2021-05-22 17:19:13             (1): BatchNorm3d(256, eps=1e-05, momentum=0.1, affine=True, track_running_stats=True)
2021-05-22 17:19:13           )
2021-05-22 17:19:13         )
2021-05-22 17:19:13         (1): Bottleneck(
2021-05-22 17:19:13           (conv1): Conv3d(256, 64, kernel_size=(1, 1, 1), stride=(1, 1, 1), bias=False)
2021-05-22 17:19:13           (bn1): BatchNorm3d(64, eps=1e-05, momentum=0.1, affine=True, track_running_stats=True)
2021-05-22 17:19:13           (conv2): Conv3d(64, 64, kernel_size=(1, 3, 3), stride=(1, 1, 1), padding=(0, 1, 1), bias=False)
2021-05-22 17:19:13           (bn2): BatchNorm3d(64, eps=1e-05, momentum=0.1, affine=True, track_running_stats=True)
2021-05-22 17:19:13           (conv3): Conv3d(64, 256, kernel_size=(1, 1, 1), stride=(1, 1, 1), bias=False)
2021-05-22 17:19:13           (bn3): BatchNorm3d(256, eps=1e-05, momentum=0.1, affine=True, track_running_stats=True)
2021-05-22 17:19:13           (relu): ReLU(inplace=True)
2021-05-22 17:19:13         )
2021-05-22 17:19:13         (2): Bottleneck(
2021-05-22 17:19:13           (conv1): Conv3d(256, 64, kernel_size=(1, 1, 1), stride=(1, 1, 1), bias=False)
2021-05-22 17:19:13           (bn1): BatchNorm3d(64, eps=1e-05, momentum=0.1, affine=True, track_running_stats=True)
2021-05-22 17:19:13           (conv2): RelationInvolution(
2021-05-22 17:19:13             (projection): Conv3d(64, 80, kernel_size=(1, 1, 1), stride=(1, 1, 1), bias=False)
2021-05-22 17:19:13             (E_conv): Conv3d(8, 64, kernel_size=(5, 7, 7), stride=(1, 1, 1), padding=(2, 3, 3), groups=8, bias=False)
2021-05-22 17:19:13             (E_feat): Conv3d(1, 8, kernel_size=(5, 7, 7), stride=(1, 1, 1), padding=(2, 3, 3), bias=False)
2021-05-22 17:19:13             (E_feat_2): Conv3d(1, 8, kernel_size=(5, 7, 7), stride=(1, 1, 1), padding=(2, 3, 3), bias=False)
2021-05-22 17:19:13           )
2021-05-22 17:19:13           (bn2): BatchNorm3d(64, eps=1e-05, momentum=0.1, affine=True, track_running_stats=True)
2021-05-22 17:19:13           (conv3): Conv3d(64, 256, kernel_size=(1, 1, 1), stride=(1, 1, 1), bias=False)
2021-05-22 17:19:13           (bn3): BatchNorm3d(256, eps=1e-05, momentum=0.1, affine=True, track_running_stats=True)
2021-05-22 17:19:13           (relu): ReLU(inplace=True)
2021-05-22 17:19:13         )
2021-05-22 17:19:13       )
2021-05-22 17:19:13       (layer2): Sequential(
2021-05-22 17:19:13         (0): Bottleneck(
2021-05-22 17:19:13           (conv1): Conv3d(256, 128, kernel_size=(1, 1, 1), stride=(1, 1, 1), bias=False)
2021-05-22 17:19:13           (bn1): BatchNorm3d(128, eps=1e-05, momentum=0.1, affine=True, track_running_stats=True)
2021-05-22 17:19:13           (conv2): Conv3d(128, 128, kernel_size=(1, 3, 3), stride=(1, 2, 2), padding=(0, 1, 1), bias=False)
2021-05-22 17:19:13           (bn2): BatchNorm3d(128, eps=1e-05, momentum=0.1, affine=True, track_running_stats=True)
2021-05-22 17:19:13           (conv3): Conv3d(128, 512, kernel_size=(1, 1, 1), stride=(1, 1, 1), bias=False)
2021-05-22 17:19:13           (bn3): BatchNorm3d(512, eps=1e-05, momentum=0.1, affine=True, track_running_stats=True)
2021-05-22 17:19:13           (relu): ReLU(inplace=True)
2021-05-22 17:19:13           (downsample): Sequential(
2021-05-22 17:19:13             (0): Conv3d(256, 512, kernel_size=(1, 1, 1), stride=(1, 2, 2), bias=False)
2021-05-22 17:19:13             (1): BatchNorm3d(512, eps=1e-05, momentum=0.1, affine=True, track_running_stats=True)
2021-05-22 17:19:13           )
2021-05-22 17:19:13         )
2021-05-22 17:19:13         (1): Bottleneck(
2021-05-22 17:19:13           (conv1): Conv3d(512, 128, kernel_size=(1, 1, 1), stride=(1, 1, 1), bias=False)
2021-05-22 17:19:13           (bn1): BatchNorm3d(128, eps=1e-05, momentum=0.1, affine=True, track_running_stats=True)
2021-05-22 17:19:13           (conv2): RelationInvolution(
2021-05-22 17:19:13             (projection): Conv3d(128, 160, kernel_size=(1, 1, 1), stride=(1, 1, 1), bias=False)
2021-05-22 17:19:13             (E_conv): Conv3d(16, 256, kernel_size=(5, 7, 7), stride=(1, 1, 1), padding=(2, 3, 3), groups=16, bias=False)
2021-05-22 17:19:13             (E_feat): Conv3d(1, 16, kernel_size=(5, 7, 7), stride=(1, 1, 1), padding=(2, 3, 3), bias=False)
2021-05-22 17:19:13             (E_feat_2): Conv3d(1, 16, kernel_size=(5, 7, 7), stride=(1, 1, 1), padding=(2, 3, 3), bias=False)
2021-05-22 17:19:13           )
2021-05-22 17:19:13           (bn2): BatchNorm3d(128, eps=1e-05, momentum=0.1, affine=True, track_running_stats=True)
2021-05-22 17:19:13           (conv3): Conv3d(128, 512, kernel_size=(1, 1, 1), stride=(1, 1, 1), bias=False)
2021-05-22 17:19:13           (bn3): BatchNorm3d(512, eps=1e-05, momentum=0.1, affine=True, track_running_stats=True)
2021-05-22 17:19:13           (relu): ReLU(inplace=True)
2021-05-22 17:19:13         )
2021-05-22 17:19:13         (2): Bottleneck(
2021-05-22 17:19:13           (conv1): Conv3d(512, 128, kernel_size=(1, 1, 1), stride=(1, 1, 1), bias=False)
2021-05-22 17:19:13           (bn1): BatchNorm3d(128, eps=1e-05, momentum=0.1, affine=True, track_running_stats=True)
2021-05-22 17:19:13           (conv2): Conv3d(128, 128, kernel_size=(1, 3, 3), stride=(1, 1, 1), padding=(0, 1, 1), bias=False)
2021-05-22 17:19:13           (bn2): BatchNorm3d(128, eps=1e-05, momentum=0.1, affine=True, track_running_stats=True)
2021-05-22 17:19:13           (conv3): Conv3d(128, 512, kernel_size=(1, 1, 1), stride=(1, 1, 1), bias=False)
2021-05-22 17:19:13           (bn3): BatchNorm3d(512, eps=1e-05, momentum=0.1, affine=True, track_running_stats=True)
2021-05-22 17:19:13           (relu): ReLU(inplace=True)
2021-05-22 17:19:13         )
2021-05-22 17:19:13         (3): Bottleneck(
2021-05-22 17:19:13           (conv1): Conv3d(512, 128, kernel_size=(1, 1, 1), stride=(1, 1, 1), bias=False)
2021-05-22 17:19:13           (bn1): BatchNorm3d(128, eps=1e-05, momentum=0.1, affine=True, track_running_stats=True)
2021-05-22 17:19:13           (conv2): RelationInvolution(
2021-05-22 17:19:13             (projection): Conv3d(128, 160, kernel_size=(1, 1, 1), stride=(1, 1, 1), bias=False)
2021-05-22 17:19:13             (E_conv): Conv3d(16, 256, kernel_size=(5, 7, 7), stride=(1, 1, 1), padding=(2, 3, 3), groups=16, bias=False)
2021-05-22 17:19:13             (E_feat): Conv3d(1, 16, kernel_size=(5, 7, 7), stride=(1, 1, 1), padding=(2, 3, 3), bias=False)
2021-05-22 17:19:13             (E_feat_2): Conv3d(1, 16, kernel_size=(5, 7, 7), stride=(1, 1, 1), padding=(2, 3, 3), bias=False)
2021-05-22 17:19:13           )
2021-05-22 17:19:13           (bn2): BatchNorm3d(128, eps=1e-05, momentum=0.1, affine=True, track_running_stats=True)
2021-05-22 17:19:13           (conv3): Conv3d(128, 512, kernel_size=(1, 1, 1), stride=(1, 1, 1), bias=False)
2021-05-22 17:19:13           (bn3): BatchNorm3d(512, eps=1e-05, momentum=0.1, affine=True, track_running_stats=True)
2021-05-22 17:19:13           (relu): ReLU(inplace=True)
2021-05-22 17:19:13         )
2021-05-22 17:19:13       )
2021-05-22 17:19:13       (layer3): Sequential(
2021-05-22 17:19:13         (0): Bottleneck(
2021-05-22 17:19:13           (conv1): Conv3d(512, 256, kernel_size=(1, 1, 1), stride=(1, 1, 1), bias=False)
2021-05-22 17:19:13           (bn1): BatchNorm3d(256, eps=1e-05, momentum=0.1, affine=True, track_running_stats=True)
2021-05-22 17:19:13           (conv2): Conv3d(256, 256, kernel_size=(1, 3, 3), stride=(1, 2, 2), padding=(0, 1, 1), bias=False)
2021-05-22 17:19:13           (bn2): BatchNorm3d(256, eps=1e-05, momentum=0.1, affine=True, track_running_stats=True)
2021-05-22 17:19:13           (conv3): Conv3d(256, 1024, kernel_size=(1, 1, 1), stride=(1, 1, 1), bias=False)
2021-05-22 17:19:13           (bn3): BatchNorm3d(1024, eps=1e-05, momentum=0.1, affine=True, track_running_stats=True)
2021-05-22 17:19:13           (relu): ReLU(inplace=True)
2021-05-22 17:19:13           (downsample): Sequential(
2021-05-22 17:19:13             (0): Conv3d(512, 1024, kernel_size=(1, 1, 1), stride=(1, 2, 2), bias=False)
2021-05-22 17:19:13             (1): BatchNorm3d(1024, eps=1e-05, momentum=0.1, affine=True, track_running_stats=True)
2021-05-22 17:19:13           )
2021-05-22 17:19:13         )
2021-05-22 17:19:13         (1): Bottleneck(
2021-05-22 17:19:13           (conv1): Conv3d(1024, 256, kernel_size=(1, 1, 1), stride=(1, 1, 1), bias=False)
2021-05-22 17:19:13           (bn1): BatchNorm3d(256, eps=1e-05, momentum=0.1, affine=True, track_running_stats=True)
2021-05-22 17:19:13           (conv2): RelationInvolution(
2021-05-22 17:19:13             (projection): Conv3d(256, 320, kernel_size=(1, 1, 1), stride=(1, 1, 1), bias=False)
2021-05-22 17:19:13             (E_conv): Conv3d(32, 1024, kernel_size=(5, 7, 7), stride=(1, 1, 1), padding=(2, 3, 3), groups=32, bias=False)
2021-05-22 17:19:13             (E_feat): Conv3d(1, 32, kernel_size=(5, 7, 7), stride=(1, 1, 1), padding=(2, 3, 3), bias=False)
2021-05-22 17:19:13             (E_feat_2): Conv3d(1, 32, kernel_size=(5, 7, 7), stride=(1, 1, 1), padding=(2, 3, 3), bias=False)
2021-05-22 17:19:13           )
2021-05-22 17:19:13           (bn2): BatchNorm3d(256, eps=1e-05, momentum=0.1, affine=True, track_running_stats=True)
2021-05-22 17:19:13           (conv3): Conv3d(256, 1024, kernel_size=(1, 1, 1), stride=(1, 1, 1), bias=False)
2021-05-22 17:19:13           (bn3): BatchNorm3d(1024, eps=1e-05, momentum=0.1, affine=True, track_running_stats=True)
2021-05-22 17:19:13           (relu): ReLU(inplace=True)
2021-05-22 17:19:13         )
2021-05-22 17:19:13         (2): Bottleneck(
2021-05-22 17:19:13           (conv1): Conv3d(1024, 256, kernel_size=(1, 1, 1), stride=(1, 1, 1), bias=False)
2021-05-22 17:19:13           (bn1): BatchNorm3d(256, eps=1e-05, momentum=0.1, affine=True, track_running_stats=True)
2021-05-22 17:19:13           (conv2): Conv3d(256, 256, kernel_size=(1, 3, 3), stride=(1, 1, 1), padding=(0, 1, 1), bias=False)
2021-05-22 17:19:13           (bn2): BatchNorm3d(256, eps=1e-05, momentum=0.1, affine=True, track_running_stats=True)
2021-05-22 17:19:13           (conv3): Conv3d(256, 1024, kernel_size=(1, 1, 1), stride=(1, 1, 1), bias=False)
2021-05-22 17:19:13           (bn3): BatchNorm3d(1024, eps=1e-05, momentum=0.1, affine=True, track_running_stats=True)
2021-05-22 17:19:13           (relu): ReLU(inplace=True)
2021-05-22 17:19:13         )
2021-05-22 17:19:13         (3): Bottleneck(
2021-05-22 17:19:13           (conv1): Conv3d(1024, 256, kernel_size=(1, 1, 1), stride=(1, 1, 1), bias=False)
2021-05-22 17:19:13           (bn1): BatchNorm3d(256, eps=1e-05, momentum=0.1, affine=True, track_running_stats=True)
2021-05-22 17:19:13           (conv2): RelationInvolution(
2021-05-22 17:19:13             (projection): Conv3d(256, 320, kernel_size=(1, 1, 1), stride=(1, 1, 1), bias=False)
2021-05-22 17:19:13             (E_conv): Conv3d(32, 1024, kernel_size=(5, 7, 7), stride=(1, 1, 1), padding=(2, 3, 3), groups=32, bias=False)
2021-05-22 17:19:13             (E_feat): Conv3d(1, 32, kernel_size=(5, 7, 7), stride=(1, 1, 1), padding=(2, 3, 3), bias=False)
2021-05-22 17:19:13             (E_feat_2): Conv3d(1, 32, kernel_size=(5, 7, 7), stride=(1, 1, 1), padding=(2, 3, 3), bias=False)
2021-05-22 17:19:13           )
2021-05-22 17:19:13           (bn2): BatchNorm3d(256, eps=1e-05, momentum=0.1, affine=True, track_running_stats=True)
2021-05-22 17:19:13           (conv3): Conv3d(256, 1024, kernel_size=(1, 1, 1), stride=(1, 1, 1), bias=False)
2021-05-22 17:19:13           (bn3): BatchNorm3d(1024, eps=1e-05, momentum=0.1, affine=True, track_running_stats=True)
2021-05-22 17:19:13           (relu): ReLU(inplace=True)
2021-05-22 17:19:13         )
2021-05-22 17:19:13         (4): Bottleneck(
2021-05-22 17:19:13           (conv1): Conv3d(1024, 256, kernel_size=(1, 1, 1), stride=(1, 1, 1), bias=False)
2021-05-22 17:19:13           (bn1): BatchNorm3d(256, eps=1e-05, momentum=0.1, affine=True, track_running_stats=True)
2021-05-22 17:19:13           (conv2): Conv3d(256, 256, kernel_size=(1, 3, 3), stride=(1, 1, 1), padding=(0, 1, 1), bias=False)
2021-05-22 17:19:13           (bn2): BatchNorm3d(256, eps=1e-05, momentum=0.1, affine=True, track_running_stats=True)
2021-05-22 17:19:13           (conv3): Conv3d(256, 1024, kernel_size=(1, 1, 1), stride=(1, 1, 1), bias=False)
2021-05-22 17:19:13           (bn3): BatchNorm3d(1024, eps=1e-05, momentum=0.1, affine=True, track_running_stats=True)
2021-05-22 17:19:13           (relu): ReLU(inplace=True)
2021-05-22 17:19:13         )
2021-05-22 17:19:13         (5): Bottleneck(
2021-05-22 17:19:13           (conv1): Conv3d(1024, 256, kernel_size=(1, 1, 1), stride=(1, 1, 1), bias=False)
2021-05-22 17:19:13           (bn1): BatchNorm3d(256, eps=1e-05, momentum=0.1, affine=True, track_running_stats=True)
2021-05-22 17:19:13           (conv2): RelationInvolution(
2021-05-22 17:19:13             (projection): Conv3d(256, 320, kernel_size=(1, 1, 1), stride=(1, 1, 1), bias=False)
2021-05-22 17:19:13             (E_conv): Conv3d(32, 1024, kernel_size=(5, 7, 7), stride=(1, 1, 1), padding=(2, 3, 3), groups=32, bias=False)
2021-05-22 17:19:13             (E_feat): Conv3d(1, 32, kernel_size=(5, 7, 7), stride=(1, 1, 1), padding=(2, 3, 3), bias=False)
2021-05-22 17:19:13             (E_feat_2): Conv3d(1, 32, kernel_size=(5, 7, 7), stride=(1, 1, 1), padding=(2, 3, 3), bias=False)
2021-05-22 17:19:13           )
2021-05-22 17:19:13           (bn2): BatchNorm3d(256, eps=1e-05, momentum=0.1, affine=True, track_running_stats=True)
2021-05-22 17:19:13           (conv3): Conv3d(256, 1024, kernel_size=(1, 1, 1), stride=(1, 1, 1), bias=False)
2021-05-22 17:19:13           (bn3): BatchNorm3d(1024, eps=1e-05, momentum=0.1, affine=True, track_running_stats=True)
2021-05-22 17:19:13           (relu): ReLU(inplace=True)
2021-05-22 17:19:13         )
2021-05-22 17:19:13       )
2021-05-22 17:19:13       (layer4): Sequential(
2021-05-22 17:19:13         (0): Bottleneck(
2021-05-22 17:19:13           (conv1): Conv3d(1024, 512, kernel_size=(1, 1, 1), stride=(1, 1, 1), bias=False)
2021-05-22 17:19:13           (bn1): BatchNorm3d(512, eps=1e-05, momentum=0.1, affine=True, track_running_stats=True)
2021-05-22 17:19:13           (conv2): Conv3d(512, 512, kernel_size=(1, 3, 3), stride=(1, 2, 2), padding=(0, 1, 1), bias=False)
2021-05-22 17:19:13           (bn2): BatchNorm3d(512, eps=1e-05, momentum=0.1, affine=True, track_running_stats=True)
2021-05-22 17:19:13           (conv3): Conv3d(512, 2048, kernel_size=(1, 1, 1), stride=(1, 1, 1), bias=False)
2021-05-22 17:19:13           (bn3): BatchNorm3d(2048, eps=1e-05, momentum=0.1, affine=True, track_running_stats=True)
2021-05-22 17:19:13           (relu): ReLU(inplace=True)
2021-05-22 17:19:13           (downsample): Sequential(
2021-05-22 17:19:13             (0): Conv3d(1024, 2048, kernel_size=(1, 1, 1), stride=(1, 2, 2), bias=False)
2021-05-22 17:19:13             (1): BatchNorm3d(2048, eps=1e-05, momentum=0.1, affine=True, track_running_stats=True)
2021-05-22 17:19:13           )
2021-05-22 17:19:13         )
2021-05-22 17:19:13         (1): Bottleneck(
2021-05-22 17:19:13           (conv1): Conv3d(2048, 512, kernel_size=(1, 1, 1), stride=(1, 1, 1), bias=False)
2021-05-22 17:19:13           (bn1): BatchNorm3d(512, eps=1e-05, momentum=0.1, affine=True, track_running_stats=True)
2021-05-22 17:19:13           (conv2): RelationInvolution(
2021-05-22 17:19:13             (projection): Conv3d(512, 640, kernel_size=(1, 1, 1), stride=(1, 1, 1), bias=False)
2021-05-22 17:19:13             (E_conv): Conv3d(64, 4096, kernel_size=(5, 7, 7), stride=(1, 1, 1), padding=(2, 3, 3), groups=64, bias=False)
2021-05-22 17:19:13             (E_feat): Conv3d(1, 64, kernel_size=(5, 7, 7), stride=(1, 1, 1), padding=(2, 3, 3), bias=False)
2021-05-22 17:19:13             (E_feat_2): Conv3d(1, 64, kernel_size=(5, 7, 7), stride=(1, 1, 1), padding=(2, 3, 3), bias=False)
2021-05-22 17:19:13           )
2021-05-22 17:19:13           (bn2): BatchNorm3d(512, eps=1e-05, momentum=0.1, affine=True, track_running_stats=True)
2021-05-22 17:19:13           (conv3): Conv3d(512, 2048, kernel_size=(1, 1, 1), stride=(1, 1, 1), bias=False)
2021-05-22 17:19:13           (bn3): BatchNorm3d(2048, eps=1e-05, momentum=0.1, affine=True, track_running_stats=True)
2021-05-22 17:19:13           (relu): ReLU(inplace=True)
2021-05-22 17:19:13         )
2021-05-22 17:19:13         (2): Bottleneck(
2021-05-22 17:19:13           (conv1): Conv3d(2048, 512, kernel_size=(1, 1, 1), stride=(1, 1, 1), bias=False)
2021-05-22 17:19:13           (bn1): BatchNorm3d(512, eps=1e-05, momentum=0.1, affine=True, track_running_stats=True)
2021-05-22 17:19:13           (conv2): Conv3d(512, 512, kernel_size=(1, 3, 3), stride=(1, 1, 1), padding=(0, 1, 1), bias=False)
2021-05-22 17:19:13           (bn2): BatchNorm3d(512, eps=1e-05, momentum=0.1, affine=True, track_running_stats=True)
2021-05-22 17:19:13           (conv3): Conv3d(512, 2048, kernel_size=(1, 1, 1), stride=(1, 1, 1), bias=False)
2021-05-22 17:19:13           (bn3): BatchNorm3d(2048, eps=1e-05, momentum=0.1, affine=True, track_running_stats=True)
2021-05-22 17:19:13           (relu): ReLU(inplace=True)
2021-05-22 17:19:13         )
2021-05-22 17:19:13       )
2021-05-22 17:19:13       (avgpool): AdaptiveAvgPool3d(output_size=(16, 1, 1))
2021-05-22 17:19:13       (fc1): Dropout(p=0.5, inplace=False)
2021-05-22 17:19:13     )
2021-05-22 17:19:13     (new_fc): Conv1d(2048, 174, kernel_size=(1,), stride=(1,))
2021-05-22 17:19:13     (consensus): ConsensusModule()
2021-05-22 17:19:13   )
2021-05-22 17:19:13 )
2021-05-22 17:19:13 [05/22 17:19:10][INFO] main.py: 146: pretrained_parts: finetune
2021-05-22 17:19:13 [05/22 17:19:10][INFO] main.py: 201: un_init_dict_keys: ['module.new_fc.weight', 'module.new_fc.bias']
2021-05-22 17:19:13 [05/22 17:19:10][INFO] main.py: 202: 
…
